best_ForestRiver_Model.model (torch, 294048 bytes, 20 tensors)

conv1.weight f4 [8, 4, 3, 3]
000000 20 86 1b 3e a6 32 b5 3d f0 92 5a bd ae de f0 3d
       0.15187883 0.08847551 -0.053362787 0.11761223
000010 eb 84 c7 bd 48 e4 f3 3d 9b 54 27 bd 83 cb 0c be
       -0.09742149 0.119087756 -0.04085217 -0.13749509
000020 b2 58 11 be a6 0c ff bd ab a5 5e bb de 9e 80 bd
       -0.14193991 -0.124535844 -0.0033973258 -0.062803015
000030 73 2f e2 bd 50 4a 0c be 5e 2c 04 3e 50 dd 5b 3d
       -0.110442065 -0.13700223 0.1290755 0.053677857
000040 3b 7f 26 3e 30 56 9f bd bb d8 22 bd e3 fc 93 3d
       0.16259472 -0.07780111 -0.03975747 0.07225969
000050 a8 ee 81 bd cb db b1 bc 80 95 85 bc d3 bd 11 3e
       -0.06344348 -0.02171125 -0.016306639 0.14232568
000060 64 ed 1c be 68 76 fc bd 8b 7e 36 bd f6 1d 84 bc
       -0.15324932 -0.12327272 -0.044554275 -0.016127568
000070 1b 5a fb bd 6b 26 8e 3c 9e 0f ca bd 76 6f 94 bc
       -0.12273046 0.017352303 -0.0986626 -0.018119555
000080 7a 7e 13 be 7e 3a c8 3d ef bf 25 be 5b f9 b7 bd
       -0.14403716 0.097767815 -0.16186498 -0.08983108
000090 fb 6a 99 3d 1b c3 1c 3e b8 26 a8 bd 3b 61 af 3d
       0.07491108 0.15308802 -0.0821051 0.08563467
0000a0 ca 27 13 be 5b e2 5e 3d 60 8e db 3c 20 37 8a 3d
       -0.14370647 0.05441509 0.026801288 0.067487955
0000b0 90 ad b6 3d b0 2d 08 bd db ed 41 3d 56 fc 15 3b
       0.08919823 -0.033246696 0.047345977 0.0022886
0000c0 6b 76 bc bc 8e 83 f1 bd e0 4b f9 3d 5b 61 b7 bd
       -0.023005685 -0.1179267 0.12172675 -0.08954116
0000d0 2b 59 41 3c 16 86 ba bd 88 99 b0 bd 56 f2 1f bd
       0.011801044 -0.09107606 -0.08623034 -0.03904947
0000e0 58 db 89 bd a8 67 e7 bd 56 90 5a 3b 56 9f 94 3a
       -0.067312896 -0.11299068 0.003335019 0.001133899
0000f0 7a a1 27 3e 06 74 1e be ee 7f cd bd eb 4f de 3d
       0.16370192 -0.15473947 -0.10034166 0.10855087
000100 f6 7b d6 3c a0 79 4a bd 60 44 48 bd 58 1b 00 3e
       0.026182156 -0.049432397 -0.048893332 0.12510431
000110 00 c1 72 bc a0 30 85 bc 1b 95 17 3d 70 5c a2 bd
       -0.014816523 -0.016258538 0.037007432 -0.07927787
000120 d6 bd 27 3d 58 e7 05 be 57 4a 1e 3e fb 29 0b bd
       0.040952526 -0.13076532 0.15458046 -0.033975583
000130 83 d1 1a be 08 29 f9 3d 86 7d ed bd 23 c8 1c be
       -0.15118985 0.12166029 -0.11596207 -0.15310721
000140 eb c3 69 bc a6 13 ba 3d 4b 31 19 3e c8 92 b6 bd
       -0.014267902 0.09085779 0.1496021 -0.08914715
000150 db a2 ca 3d 78 18 f6 3d f3 88 99 3d 20 43 cb 3c
       0.098943435 0.12016386 0.07496824 0.024812281
000160 9b 0f 73 3d b6 21 15 bd 16 29 20 3e a3 35 ca bd
       0.059341054 -0.036409102 0.15640673 -0.09873512
000170 34 3e 07 3e e6 4d 92 3d 80 91 60 bd 56 db a9 ba
       0.13207322 0.07143764 -0.05482626 -0.0012959044
000180 1f c9 29 3e d2 c4 1d be 2b 55 01 bc 36 f9 75 bd
       0.16580628 -0.15407112 -0.007893841 -0.06005212
000190 ab a4 99 3a e8 71 a0 3d 9b 16 00 bd 40 4f d6 bd
       0.0011722049 0.07834226 -0.03127156 -0.104643345
0001a0 56 93 ba 3a eb 2f 00 3e e0 7e 1a 3d 56 14 01 be
       0.0014234583 0.12518279 0.037718654 -0.12605414
0001b0 c8 ec bb bd f6 e6 b2 bc 30 30 21 3d cb bf 63 3d
       -0.09176022 -0.021838646 0.039352596 0.05560283
0001c0 80 69 31 3c 36 2c c2 3d 18 90 eb bd 08 df 22 be
       0.010828376 0.09481089 -0.11502093 -0.15905392
0001d0 4b 74 a1 bd 90 28 dd bd 66 d4 d2 3d d0 a4 76 3d
       -0.07883509 -0.10798752 0.10294418 0.06021577
0001e0 b3 05 e8 3d 9b 25 80 bd 20 85 bb bd 2b b8 32 3d
       0.11329212 -0.06257173 -0.09156251 0.043632668
0001f0 66 4a 7c 3d 1f 9b 0c 3e ce 62 05 be d6 0e b0 bb
       0.06159439 0.13731049 -0.13025972 -0.0053728623
000200 f8 aa 8a 3d 2c 7c 08 be 38 26 13 3e 36 15 49 bd
       0.06770891 -0.13328618 0.14370048 -0.049092494
000210 50 69 7f bd 3b 42 0f 3e 16 97 8f 3d 40 80 0c 3c
       -0.062356293 0.13990109 0.07011239 0.008575499
000220 86 4e 27 be e0 f4 f0 bd 93 6e 29 3e d6 38 f9 3b
       -0.16338548 -0.11765456 0.16546087 0.0076056523
000230 20 9f 09 bd 90 74 8f 3d fe d1 90 bd f3 54 d8 bd
       -0.03359902 0.070046544 -0.07071303 -0.10563078
000240 48 e8 88 3d 56 d2 87 bb e0 36 e4 3d 50 e7 25 bd
       0.06684929 -0.004144947 0.11143279 -0.0405038
000250 30 53 9b bd 7b 3b 9e 3d ab 01 47 3c d0 c4 ef 3d
       -0.07584226 0.07726189 0.012146394 0.11707461
000260 9b ca 23 bd 00 9e 6f bb a3 7f ad bd eb 2b c8 3c
       -0.03998814 -0.0036562681 -0.084716104 0.024435004
000270 e0 96 ec 3d 1f 5c 04 be d0 97 55 bd 27 8b 16 be
       0.115522146 -0.12925766 -0.052146733 -0.1470152
000280 1b c7 0c bd 8e fc e9 bd 6e 32 a3 bd ab 93 68 bd
       -0.03436957 -0.11425124 -0.07968603 -0.056781452
000290 b6 33 de bd 4b be 60 3d 0b fa 11 bd ee 79 be bd
       -0.10849707 0.054868978 -0.03563885 -0.093006
0002a0 e6 77 b8 bd ce e2 cc 3d 93 f6 86 3d 67 4f 25 3e
       -0.09007244 0.10004197 0.06589999 0.16143571
0002b0 80 d7 cc 3c 9b 7b c5 bd 92 7a 1a 3e 96 3a 3a 3d
       0.025005102 -0.096427165 0.1508582 0.04546603
0002c0 96 5f 79 bc f6 02 84 bd 20 d1 db bc 04 7f 22 3e
       -0.015220543 -0.06445877 -0.026833117 0.15868765
0002d0 6b 6a df bd 4f c3 08 be 7b cc 0e bd 83 3e 23 3e
       -0.109089695 -0.13355754 -0.034862977 0.15941815
0002e0 be 9c e2 bd 1b d3 74 3d e0 d1 05 3e 62 61 16 be
       -0.110650524 0.05977164 0.13068342 -0.14685586
0002f0 30 a7 26 3d 0b b9 97 3d 5e 56 cb bd 6b c7 71 bc
       0.040686786 0.07408341 -0.099285826 -0.014757018
000300 80 b5 97 3b a3 2a c8 3d 9a ba 01 3e 6b 57 29 be
       0.004629791 0.09773757 0.12668839 -0.16537254
000310 03 a4 24 be 8e dd b8 3d 00 2f 11 be 76 cd f4 bc
       -0.1607819 0.09026633 -0.14178085 -0.029883128
000320 de 66 2a 3e 40 ed 1b be de 72 b5 bd b0 92 2a 3d
       0.16640803 -0.15227222 -0.088598 0.0416438
000330 ee 3e bd 3d e7 ff 08 3e c6 ef 58 bd 28 7e 9e 3d
       0.092405185 0.13378869 -0.05296304 0.07738906
000340 8e bc 9a 3d 9b 31 ff 3d 6b fb 1f 3d 8b cc 0f bd
       0.07555495 0.12460633 0.03905813 -0.035107177
000350 e8 8b ab bd db 85 ef 3d 9b c7 d0 bd e6 7a 32 bd
       -0.083762944 0.11695453 -0.10194322 -0.043574236
000360 96 13 52 bc c0 a4 0d bd 12 d6 27 3e e8 75 8d bd
       -0.012822052 -0.034580946 0.16390255 -0.069072545
000370 ee c9 0c 3e f6 a5 24 be bb bd 36 bd 16 45 5d 3d
       0.13748905 -0.16078934 -0.044614535 0.054020964
000380 40 a8 0a bc fb 40 b9 bd 26 f7 5a bd ab 6d f1 3d
       -0.0084629655 -0.09045597 -0.053458355 0.11788496
000390 e3 6c 9a 3d 12 3d 09 be e7 b9 14 3e cb 6f 34 bd
       0.075403 -0.13402203 0.14524041 -0.044051927
0003a0 d6 45 29 3d 36 0a 91 bd 18 79 da 3d 5b b5 e1 3d
       0.041326366 -0.07082026 0.10667628 0.11020919
0003b0 e0 15 a3 bc be 87 f2 3d 70 ce f9 bd 1e 9f ef bd
       -0.019907892 0.11842297 -0.12197578 -0.11700271
0003c0 b0 d7 13 be 4e b0 94 bd af 86 25 3e 36 a8 cc 3c
       -0.14437747 -0.0726019 0.16164659 0.024982553
0003d0 43 88 c2 3d ce d0 8b 3d 38 3e cd bd 16 51 b6 3d
       0.09498646 0.06826936 -0.10021633 0.08902185
0003e0 74 63 22 be 0e b3 ab bd 70 74 65 bd 06 1a b6 bd
       -0.15858251 -0.08383761 -0.056019247 -0.08891682
0003f0 3b af d4 bd d0 8a f2 3d b6 d1 c0 3d e0 8d b7 bc
       -0.10384985 0.11842883 0.09414999 -0.022406518

conv1.bias f4 [8]
000000 b3 e2 84 bd 00 09 2a bd 73 66 ec 3d 6b e3 2d 3d
       -0.06488552 -0.04151249 0.11542978 0.04245321
000010 f8 d5 dc bd 46 d0 33 3d 8b b3 cc bd 0e 2b d4 bd
       -0.10782999 0.043899797 -0.099951826 -0.103597745

bn1.weight f4 [8]
000000 00 00 80 3f 00 00 80 3f 00 00 80 3f 00 00 80 3f
       1.0 1.0 1.0 1.0
000010 00 00 80 3f 00 00 80 3f 00 00 80 3f 00 00 80 3f
       1.0 1.0 1.0 1.0

bn1.bias f4 [8]
000000 00 00 00 00 00 00 00 00 00 00 00 00 00 00 00 00
       0.0 0.0 0.0 0.0
000010 00 00 00 00 00 00 00 00 00 00 00 00 00 00 00 00
       0.0 0.0 0.0 0.0

bn1.running_mean f4 [8]
000000 49 b7 b3 bd 65 81 20 bd b6 29 ee 3d 64 f6 0a 3d
       -0.08775193 -0.0391859 0.116290495 0.033926383
000010 83 d7 cc bd ff dd 3f 3d ad f9 da bd 5d 35 bb bd
       -0.10002043 0.04684257 -0.10692153 -0.091410376

bn1.running_var f4 [8]
000000 f4 11 96 38 21 ff 04 37 c2 e6 16 37 6c 3e ac 37
       7.1559014e-05 7.927215e-06 8.994424e-06 2.0533065e-05
000010 a0 50 0e 38 1f e1 66 37 d6 55 9e 37 f7 14 7f 37
       3.3930526e-05 1.3761483e-05 1.8875038e-05 1.5204066e-05

conv2.weight f4 [16, 8, 3, 3]
000000 0c e4 06 bd 79 c2 85 3d a1 8e 92 bd 7d 35 ad bb
       -0.032932326 0.06531233 -0.071561106 -0.0052859173
000010 12 82 07 3c 38 3d 32 3d f5 74 e1 bd 1f 6d 69 ba
       0.008270757 0.043515414 -0.11008636 -0.0008904505
000020 f2 da 0e 3d 3d c2 45 3d 7b 7d 64 bd 9e 83 d3 bd
       0.03487677 0.048280943 -0.05578373 -0.10327838
000030 ee 30 a0 3d de 89 02 3c d5 49 19 bb 78 9c ef bd
       0.078218326 0.00796744 -0.0023389955 -0.11699766
000040 c4 25 bc bd a3 99 36 bd e5 25 b7 bd 69 09 56 3d
       -0.09186891 -0.044580113 -0.08942775 0.052255068
000050 68 55 bd 3d 57 d9 ce bc c4 e7 1f 3c 3e c7 19 bd
       0.092448056 -0.02525012 0.009759847 -0.037543528
000060 34 3c d6 3d b3 eb c9 3d 64 d5 3e 3d d2 f0 da 3d
       0.104607016 0.09859409 0.046590224 0.10690464
000070 6d 19 50 bb 70 7c b6 bd 6d dc ad 3c 43 4a a8 3d
       -0.0031753436 -0.08910453 0.021223271 0.08217289
000080 a9 b4 d9 bd 96 88 55 bd 97 70 49 3b fc 12 1d bc
       -0.10630161 -0.05213221 0.0030737275 -0.009587046
000090 19 dd ac 3d 0a 5e 3f 3d 87 8e 13 3d 2b 07 84 bd
       0.084406085 0.046720542 0.036024597 -0.0644668
0000a0 9f 3e 9c 3d 31 8a 8a bd 6e 90 52 bd 62 3a cb bc
       0.076291315 -0.06764639 -0.05140727 -0.024808113
0000b0 2f ee 88 3d 18 9e a6 bc cb e8 80 3d 31 f8 9f bd
       0.06686055 -0.020339057 0.06294402 -0.07811011
0000c0 fa 8b 57 bd f2 d3 a2 3a ed 2a a2 bd 3a 5c 1d 3d
       -0.052623726 0.0012422784 -0.07918344 0.038418032
0000d0 6f 15 ad bb 6d 00 35 bd 1c 65 a7 bd 12 d2 8f 3d
       -0.005282096 -0.04418986 -0.08173582 0.070224896
0000e0 25 33 65 bd 09 01 cf bd 4c 08 f4 bb bc 5f 17 3d
       -0.05595698 -0.10107619 -0.007447278 0.036956534
0000f0 cb 1a dd bd e3 40 c3 3d af fa a4 3d 08 7c 95 3b
       -0.10796126 0.095338605 0.080556266 0.004561905
000100 6e f7 99 bd a0 84 84 3d 5d 42 8a 3d 1f 7c d9 bd
       -0.075178966 0.06470609 0.06750939 -0.10619377
000110 a3 f3 b9 3c 6c ac 92 bd 85 11 b6 3d 14 3c 05 3d
       0.022699183 -0.07161793 0.0889006 0.032527998
000120 96 a0 9c 3d 07 6f ac 3c 94 fb 09 3c 0a ff 16 bd
       0.07647817 0.021049036 0.008421797 -0.036864318
000130 24 9a 46 bd e8 6e 31 bd fb ea c0 3d d3 9d 96 bb
       -0.048486844 -0.04331866 0.09419819 -0.004596451
000140 90 19 a9 bd 10 9e b6 3d 07 5c d8 bb 7e 1f c1 3b
       -0.08256829 0.08916867 -0.0066027674 0.0058936467
000150 31 71 d6 3d 1f 60 be 3d 1e d8 5c bd da de 01 3d
       0.10470808 0.092956774 -0.053917043 0.03170667
000160 68 10 39 bd f9 79 49 bd ff ba 32 bd ca 5d b9 3c
       -0.04518166 -0.049188588 -0.043635365 0.02262773
000170 03 4c 6b bc 68 f8 9c bb af a3 cc 3c ec a5 1a 3d
       -0.014361384 -0.0047903545 0.024980394 0.03775589
000180 af 32 d8 bd db 40 63 3c b8 59 68 bd 57 ef 20 bd
       -0.10556542 0.013870443 -0.056726187 -0.039290752
000190 23 23 7c bd 46 03 52 bd c0 77 a2 3d e8 c4 54 ba
       -0.061556946 -0.051272653 0.07932997 -0.00081164995
0001a0 f2 6b b1 3c 36 7a 95 3d f9 06 d3 bd 72 e9 7f bd
       0.021657918 0.072987005 -0.10304064 -0.06247849
0001b0 8e 1b 8f bb 50 de bd bd 6b 1f a8 bd 1d a2 82 bc
       -0.0043672984 -0.09270918 -0.082091175 -0.015946442
0001c0 fe 22 76 bb 49 50 84 bd a9 d9 22 3d a1 d8 86 bc
       -0.0037557478 -0.06460626 0.03975836 -0.016460719
0001d0 46 6d f9 bc d7 28 83 bd 71 e7 c8 3d 50 ae ea 3d
       -0.030447613 -0.06404274 0.09809769 0.11459029
0001e0 e3 63 62 bc 04 32 4a 3d 50 34 e9 bd a0 b5 ab bd
       -0.01381776 0.049364105 -0.11386931 -0.083842516
0001f0 8e 69 07 3d 18 1e dd 3d 41 74 b8 3d ff 4b 64 3d
       0.03305965 0.107967556 0.09006549 0.055736538
000200 1a 46 7f bd 57 29 d5 bd 01 31 9c 3b 97 60 dc 3d
       -0.062322713 -0.104082756 0.004766584 0.107606106
000210 03 9d ba 3d 61 67 a4 3d 6b 7e c7 bd 22 db 2f 3a
       0.09111979 0.080275305 -0.09740909 0.00067083735
000220 87 ec b4 3c d3 29 9d bd bd 35 d7 3d 13 ba 66 bd
       0.022085441 -0.07673993 0.10508297 -0.056329798
000230 1c 1f d6 bd e3 39 96 bb 1d ee 9d bd bf 23 9d 3d
       -0.104551524 -0.0045845374 -0.07711432 0.07672834
000240 eb c5 d5 3d 20 48 99 bd 8e 47 cb bd 82 2d 86 3c
       0.104381405 -0.0748446 -0.09925757 0.016379122
000250 76 24 20 bc d9 97 eb bb 01 e9 ac bd ac 2c d4 bc
       -0.009774318 -0.0071897325 -0.084428795 -0.025900207
000260 d7 6d 52 3d 23 e8 81 3d bb 5d 4e 3d a9 9c 91 bd
       0.051374283 0.06343105 0.050382357 -0.07109959
000270 00 52 c1 bd d4 91 a8 bd aa cb e6 3c e6 88 b5 3d
       -0.094394684 -0.082309395 0.028173286 0.08864002
000280 7c 7d 75 bd 2b f1 f0 3d be 81 05 3d cc 21 28 3d
       -0.059934124 0.11764749 0.032594435 0.041047856
000290 20 60 66 3d 28 66 3f 3d 8d fb 33 3d 3a f5 de 3d
       0.056244016 0.046728283 0.04394107 0.10886617
0002a0 19 13 b8 bd 64 2d 21 bd b6 a1 59 bd 70 4c 85 3d
       -0.089880176 -0.03934993 -0.053132735 0.0650872
0002b0 81 41 5b bd 2e 08 a5 3d 55 6e af 3d 70 de cd bb
       -0.053529266 0.08058201 0.08565966 -0.00628262
0002c0 31 fe 04 bc cb 19 42 3d ec 74 57 3c 5d 18 1f bd
       -0.008117245 0.04738788 0.013150435 -0.038841594
0002d0 dc 24 d9 bd fb 3b 5c 3b 01 05 d1 bd 95 53 ea 3d
       -0.106027335 0.0033605087 -0.102060325 0.11441723
0002e0 a9 4a 0c 3c ae 84 f0 bd 70 48 8a bd d6 41 99 bd
       0.008562722 -0.11744057 -0.067520976 -0.0748326
0002f0 2a 20 b1 3d d3 70 b4 3d 59 5e e2 bd 2e 5f 92 3d
       0.08648713 0.08810582 -0.11053152 0.0714706
000300 70 f6 a8 bd b0 ba bb 3d 88 8e 45 bd a2 64 3d 3d
       -0.08250129 0.09166467 -0.04823163 0.04623855
000310 00 6f f3 bc 65 b5 96 3c a0 5f 22 bc dc e5 4d 3d
       -0.029716015 0.018397043 -0.009910494 0.05026804
000320 8b be 38 3c f8 c1 49 bc 3e 5d 77 3c 1a 21 80 3d
       0.011275898 -0.012314312 0.015097914 0.062563136
000330 92 7f ee bd 8a 52 cd 3d fc 2e c6 bd 10 70 bc 3c
       -0.11645426 0.10025509 -0.0967693 0.023002654
000340 ab 1b 28 3d f4 d0 a9 bc a9 a6 8c bd 0c a6 89 bd
       0.04104201 -0.02072952 -0.068677254 -0.06721124
000350 f3 e3 4e bc e9 d0 c2 bd 8c a1 ce bd a5 fd 2d bd
       -0.0126275895 -0.09512503 -0.10089406 -0.042478222
000360 09 2b ba 3d b1 f1 aa bd 57 ae 71 bd 93 f0 ea 3d
       0.090902396 -0.0834688 -0.059004154 0.11471667
000370 f1 c4 ee 3d 96 fa 8a bd 78 e1 31 bd ac 32 2c bd
       0.11658657 -0.06786077 -0.043427914 -0.042040512
000380 7b a2 db bc 19 47 e8 bd 7b 29 82 3d a1 ab aa bd
       -0.026810875 -0.11341686 0.06355568 -0.08333517
000390 31 1c 9d bd 09 39 dd bd 25 71 b5 3d 6c e6 e5 bd
       -0.07671393 -0.10801894 0.08859471 -0.1122559
0003a0 b5 15 16 bd 85 e2 ab 3c 0b a1 80 3d 53 13 cb bd
       -0.036641795 0.020982036 0.062807165 -0.09915795
0003b0 b6 8b 79 bd 18 b9 7e bc ca a3 61 3b 43 d7 46 3d
       -0.060924254 -0.0155470595 0.0034429901 0.048545133
0003c0 cf 24 0f 3d 81 c4 12 3d 1a af b6 bb 6b 63 b3 bd
       0.034947213 0.035831932 -0.005575073 -0.08759197
0003d0 1b 3a e8 bd 47 b4 b6 3d a9 23 e4 bd 33 6f 88 3d
       -0.11339208 0.08921104 -0.11139614 0.066618346
0003e0 40 f3 d4 bd bb 01 da 3c 30 ce d1 bd 97 ed dc 3d
       -0.10397959 0.026612153 -0.10244405 0.10787504
0003f0 0f e6 5e bd 2b cb 24 bb 21 89 8f 3d b4 37 d9 bc
       -0.05441862 -0.0025145512 0.07008577 -0.02651582

conv2.bias f4 [16]
000000 7b dc c7 3d ae 90 af 3c ed 30 b0 bc 3a 67 bd bd
       0.0975885 0.021431293 -0.021507705 -0.092482045
000010 0f 05 15 3c 83 09 d8 3d 62 ab a2 3d 71 64 ee 3c
       0.009095444 0.10548689 0.07942845 0.029100629
000020 ba b7 9e bd 81 d5 a7 3d 61 6d cd 3d 27 de dd bd
       -0.07749887 0.081950195 0.10030628 -0.10833388
000030 86 db 56 3d 97 fb 3f 3d f7 67 23 bb dc 54 83 3d
       0.052455448 0.046870794 -0.0024933794 0.0641267

bn2.weight f4 [16]
000000 00 00 80 3f 00 00 80 3f 00 00 80 3f 00 00 80 3f
       1.0 1.0 1.0 1.0
000010 00 00 80 3f 00 00 80 3f 00 00 80 3f 00 00 80 3f
       1.0 1.0 1.0 1.0
000020 00 00 80 3f 00 00 80 3f 00 00 80 3f 00 00 80 3f
       1.0 1.0 1.0 1.0
000030 00 00 80 3f 00 00 80 3f 00 00 80 3f 00 00 80 3f
       1.0 1.0 1.0 1.0

bn2.bias f4 [16]
000000 00 00 00 00 00 00 00 00 00 00 00 00 00 00 00 00
       0.0 0.0 0.0 0.0
000010 00 00 00 00 00 00 00 00 00 00 00 00 00 00 00 00
       0.0 0.0 0.0 0.0
000020 00 00 00 00 00 00 00 00 00 00 00 00 00 00 00 00
       0.0 0.0 0.0 0.0
000030 00 00 00 00 00 00 00 00 00 00 00 00 00 00 00 00
       0.0 0.0 0.0 0.0

bn2.running_mean f4 [16]
000000 61 62 00 3b 4d f5 b2 bd e8 ee 36 be 0f 9d f8 be
       0.0019589888 -0.08738194 -0.17864573 -0.48557326
000010 49 d1 24 3e d0 ec 9a 3d 3c 3f a1 3e 7f cd 12 3c
       0.16095461 0.075647 0.31493556 0.008960127
000020 26 63 83 3e 48 05 a7 3e 37 7f 56 be d3 28 83 3d
       0.25661582 0.32621217 -0.20946966 0.06404271
000030 77 07 d6 be d9 28 35 3e a3 56 38 bd b7 7c b9 3d
       -0.4180257 0.17691363 -0.0450045 0.090569906

bn2.running_var f4 [16]
000000 db 88 3b 3d 6a 54 00 3d 68 28 9f 3d 1b cb b9 3d
       0.045784812 0.031330504 0.07771379 0.090719424
000010 e6 b6 ca 3d 54 a6 81 3e f5 0d 40 3d 5d 99 8a 3d
       0.09898166 0.2532221 0.04688831 0.06767533
000020 5e 0b 0e 3e 09 c6 48 3d 74 f6 2b 3d fd 22 0a 3e
       0.13871524 0.049016986 0.041983083 0.1348991
000030 6e 16 73 3d 62 7c 9a 3d 8c 71 08 3e a4 00 71 3d
       0.059347562 0.075432554 0.13324565 0.0588385

conv3.weight f4 [32, 16, 3, 3]
000000 76 a6 7e bd 1b 96 a7 3d 4e e5 99 bd b0 49 90 3d
       -0.06217047 0.08182927 -0.075144395 0.07045305
000010 d3 3d 3e bd ab c3 e5 3c 26 53 d4 3c 50 f7 97 bd
       -0.04644568 0.028047403 0.025918555 -0.07420218
000020 c0 f2 d4 bc 00 b3 a2 3c 10 27 9b bc 8b c0 1c 3c
       -0.025994658 0.019860744 -0.018939525 0.00956739
000030 56 55 f8 b7 53 8a 71 bd d6 3d 51 3b 98 69 75 3d
       -2.9603641e-05 -0.058969807 0.0031927726 0.059915155
000040 96 44 39 3c 28 02 65 3d 10 87 f7 bc 03 c2 95 bd
       0.011307856 0.05591026 -0.03021577 -0.073123954
000050 e8 ea 30 bd a0 e9 20 3d 7b 00 23 3d 08 f5 40 3d
       -0.043192774 0.039285302 0.03979538 0.04710868
000060 4f 60 8c 3d bf 29 89 3d 5b fb 90 bd 66 42 2a 3d
       0.06854307 0.066974156 -0.07079192 0.04156723
000070 36 f4 32 3c 7c 54 a7 bd d2 9c 87 bd 0b df 2f bc
       0.010922482 -0.08170411 -0.06621708 -0.01073433
000080 83 ac 52 bd 58 d4 24 3d 86 61 b4 3c 56 41 6d bb
       -0.05143405 0.04024157 0.022019159 -0.0036202273
000090 b3 7d 93 3d 70 86 e4 bc a6 42 10 3d 5b 98 a5 bd
       0.072017096 -0.027896136 0.03521981 -0.080857
0000a0 30 bb 0c 3d 80 92 8f 3b 40 b9 f3 3c 27 3b a1 3d
       0.034358203 0.004381478 0.02975142 0.078726105
0000b0 36 7d 6b 3d 08 29 71 3d ab 50 88 bd 00 8e 36 ba
       0.057492457 0.05887702 -0.06656011 -0.00069639087
0000c0 a6 67 d5 3c 7b 4f 48 3d d6 78 70 3d 6b 3d ce bc
       0.0260504 0.048903923 0.058708988 -0.02517577
0000d0 20 4d 56 3c b8 11 43 bd d6 5e 9f bc ab 67 ee 3a
       0.0130799115 -0.04762432 -0.019454401 0.0018188854
0000e0 ff 60 a1 bd 53 23 36 3d 26 7b e6 3c e3 8b 82 bd
       -0.07879829 0.04446728 0.028134894 -0.063743375
0000f0 bb 70 3d 3d bc 0e 93 bd eb ed 25 bd 0b 4a ba bc
       0.046250086 -0.07180545 -0.0405101 -0.022740385
000100 16 b0 91 3b 48 2f 5d 3d d0 cb f1 3c 68 cc 72 3d
       0.00444604 0.05400017 0.02951613 0.05927697
000110 70 1b 18 bd f0 1c 85 3c 20 a9 2c 3d 70 37 b1 3c
       -0.03713554 0.01624915 0.042153478 0.02163288
000120 56 9d 5e bd b6 99 3d bc b0 97 9e 3d 96 72 f2 3c
       -0.054349266 -0.011572292 0.07743776 0.029595654
000130 ab 56 f4 39 90 0b b1 bc f0 0d c1 bc cb 61 c3 3c
       0.0004660388 -0.021611959 -0.023566216 0.023850342
000140 a6 ca 40 bd 98 7c 9e 3d 7b e8 01 3d d0 af 5a bd
       -0.04706826 0.07738608 0.03171585 -0.053390324
000150 e3 5a 59 3d 96 8d 93 3d 96 f2 82 bc c6 c6 8a 3d
       0.053065192 0.0720474 -0.015984815 0.06776194
000160 6b 21 20 3d cb ec 2c 3d 02 9f a4 3d 6b 21 a9 bb
       0.03909437 0.04221801 0.08038141 -0.0051614544
000170 00 bb 06 3d 4b 44 59 bd 0e 93 95 3d be b6 4f 3d
       0.03289318 -0.053043645 0.07303439 0.050711386
000180 c4 42 aa 3d 3b d6 11 bd 0b f1 0d bd 90 ff 92 3c
       0.08313516 -0.035604697 -0.034653705 0.017944127
000190 20 f5 3e 3c f6 2d 06 bc eb 86 e8 3b bb 93 8d 3d
       0.011655122 -0.008189669 0.0070961616 0.06912943
0001a0 3e 57 21 bd 66 3b a4 bc a6 d3 96 3c eb 40 98 3b
       -0.03938984 -0.020047855 0.018411469 0.0046464107
0001b0 90 11 ec bc bb 66 d5 bc 2b fe 95 bb c0 62 29 bc
       -0.028816968 -0.026049962 -0.0045774183 -0.010338485
0001c0 90 a9 90 bc 56 cb 6a 3d 56 2a 61 bc b3 23 4e 3d
       -0.017658979 0.057322823 -0.013743004 0.050327014
0001d0 10 74 cd bc e6 87 17 3d bb ad aa bc 8b 7d 54 3d
       -0.025079757 0.036994837 -0.020834794 0.05187754
0001e0 66 c5 76 bd 60 44 87 3c ac 90 92 3d ee fe 8a bd
       -0.060246848 0.016512096 0.071565 -0.06786905
0001f0 e0 85 9c 3d 9b 6d 2d 3d 68 7d 96 bd 1e f5 9b 3d
       0.07642722 0.042340856 -0.07348138 0.07615112
000200 80 5f 2b bc 56 43 25 bb 37 81 95 bd 50 d5 e2 3c
       -0.010459781 -0.0025217137 -0.073000364 0.027689606
000210 9b d2 9f bd 63 fe 70 bd 20 a4 96 bd f8 ae 2c bd
       -0.07803842 -0.058836352 -0.07355523 -0.04215905
000220 ab d0 2b bd 20 24 95 bc 0b 19 ae 3c 2e c8 09 3d
       -0.04194705 -0.018205702 0.021252176 0.03363817
000230 66 96 dc 3c d8 a5 a0 bd 00 88 1a bb 76 50 91 bd
       0.026927184 -0.07844132 -0.0023579597 -0.07095425
000240 fb 2c d0 bc 00 90 63 3c b6 5a 89 3d 2e 29 08 3d
       -0.025412073 0.013889313 0.06706755 0.033242397
000250 66 63 08 3d e3 14 44 3d 00 b4 8f 3a 9b ec 81 3d
       0.03329792 0.04787148 0.0010963678 0.06343957
000260 96 a8 17 3d 50 52 79 3d 16 1e df bb 0b ee 05 3c
       0.03702601 0.060869515 -0.0068090064 0.00817443
000270 18 b8 00 3d 0b b1 26 bd 7f e2 9d 3d 4a d7 89 3d
       0.031425565 -0.040696185 0.07709216 0.06730516
000280 60 bc 7a 3d 8a c0 85 3d 9e 3f 9f bd 56 54 47 bb
       0.061214805 0.065308645 -0.07775806 -0.0030415258
000290 12 d6 97 3d e0 45 93 bd a6 bf 06 bd 90 5f b8 3c
       0.074138775 -0.07191062 -0.032897614 0.022506505
0002a0 9f e9 8f bd 86 9f 9d bc d8 22 4b bd 1f 63 a2 bd
       -0.070269816 -0.019241106 -0.049593776 -0.07929062
0002b0 58 05 25 3d 00 4d c4 bb 26 6f ef bc cb ce 9a bc
       0.0402883 -0.0059906244 -0.029227804 -0.018897435
0002c0 00 e0 0e 3d c0 50 82 bb 30 69 7b 3d f8 88 14 bd
       0.03488159 -0.0039769113 0.06137961 -0.036263436
0002d0 27 49 a7 bd cb cd 72 3c 8a 4b 84 3d bf fc 92 bd
       -0.081682496 0.014819573 0.064597204 -0.07177114
0002e0 56 16 8a ba 78 e9 6c 3d be 05 9a 3d 20 f8 4d 3d
       -0.0010535221 0.05783984 0.075206265 0.05028546
0002f0 06 43 e4 3c 60 ed 09 3d 68 5e 03 bd 10 44 51 bd
       0.02786399 0.033673644 -0.032072455 -0.0510903
000300 50 60 cd bc 63 d9 a0 3d 4b ae fb bc 6b fe 6d 3d
       -0.02507034 0.07853963 -0.030722758 0.05810396
000310 f8 f1 21 3d ab 66 4b 3b 5e d3 25 bd 36 f4 30 bd
       0.0395374 0.0031036537 -0.04048478 -0.043201648
000320 e0 8e 1a bc a7 65 a4 3d 03 84 31 bd 36 cc 39 bd
       -0.009433478 0.08027201 -0.043338787 -0.045360766
000330 2b ce fa bb 96 b9 e6 bc 8b e4 ad 3c a0 7d 89 3c
       -0.0076539717 -0.028164666 0.021227142 0.016783535
000340 56 2d 5e ba 52 89 80 3d 20 4b 1d bd 80 9c 72 bb
       -0.00084753835 0.06276192 -0.038401723 -0.003701955
000350 78 35 3a bd f4 9c 82 3d 46 ec 95 bc 00 c8 39 3a
       -0.045461148 0.06377593 -0.01830114 0.0007086992
000360 b2 14 a2 bd 80 55 8d bc eb ba 28 3d a8 b4 2a bd
       -0.079141036 -0.017252684 0.041193884 -0.041676193
000370 1e ef 94 bd 5b fc cc 3c d3 0b 2c bd 38 b0 79 3d
       -0.072721705 0.025022676 -0.042003464 0.06095907
000380 1b 34 6b 3d 16 88 84 bd 00 f1 fa 3a 46 f1 78 3d
       0.05742274 -0.06471269 0.001914531 0.06077697
000390 ab 46 78 3a d0 f6 e6 bc 00 fb a9 bb 7b 65 e3 bc
       0.00094709796 -0.028193861 -0.0051873922 -0.02775835
0003a0 70 53 93 bd c0 7f c1 bc e0 70 16 bd 8b f6 43 bd
       -0.07193649 -0.023620486 -0.03672874 -0.047842544
0003b0 fb 8a d6 3c d6 eb a6 3b c0 00 0f bd f6 28 35 3c
       0.026189318 0.005094032 -0.034912825 0.011057129
0003c0 f0 c2 9e 3c ae 85 a0 bd a0 34 3e bd 00 51 3a 3c
       0.019380063 -0.078379974 -0.046436906 0.011371851
0003d0 90 a6 da bc 02 61 a3 bd 5b e6 e3 3c cb 7c 6a 3d
       -0.026690751 -0.07977487 0.027819803 0.057247918
0003e0 d6 54 c5 bb 6b 9c 30 3d 72 df a4 3d fb 4a e0 bc
       -0.006022076 0.04311792 0.08050431 -0.027379503
0003f0 e0 0b 7b bc 50 99 f8 bc c6 a4 4c bd ab d3 92 3a
       -0.015322655 -0.030346543 -0.049961828 0.0011201998

conv3.bias f4 [32]
000000 2b a3 44 bd 4b 09 81 3d e8 d8 8e bd 16 f4 78 bc
       -0.04800717 0.063006006 -0.06974965 -0.015194913
000010 e8 ce 24 3d c3 21 28 3d b4 27 91 3d ab 39 73 bd
       0.040236384 0.041047823 0.07087651 -0.05938117
000020 46 c3 42 bd eb 39 1f 3d 00 ba 47 3d e8 7b 4b bd
       -0.04754951 0.038873594 0.048761368 -0.049678713
000030 60 dc 9f 3d 56 18 9b bc 43 50 22 3d 9b 83 a8 bc
       0.07805705 -0.018932503 0.039627325 -0.020570567
000040 b3 13 74 bd 06 a9 eb 3c 00 fd 52 3d eb 5b 10 3d
       -0.0595891 0.02876712 0.05151081 0.03524391
000050 2b 5a b9 bb c6 1c d1 bc cb 20 71 3d 76 4c ec bc
       -0.005656501 -0.025526416 0.058869164 -0.028845053
000060 66 22 c9 3c 56 d1 43 bb 80 2d 31 bb 4b 4d 79 bc
       0.024552535 -0.0029879413 -0.0027035177 -0.015216182
000070 00 5f 99 bc 40 6d ab bc 96 a1 6d bc 92 fe 94 3d
       -0.018722057 -0.020926118 -0.014503857 0.07275118

bn3.weight f4 [32]
000000 00 00 80 3f 00 00 80 3f 00 00 80 3f 00 00 80 3f
       1.0 1.0 1.0 1.0
000010 00 00 80 3f 00 00 80 3f 00 00 80 3f 00 00 80 3f
       1.0 1.0 1.0 1.0
000020 00 00 80 3f 00 00 80 3f 00 00 80 3f 00 00 80 3f
       1.0 1.0 1.0 1.0
000030 00 00 80 3f 00 00 80 3f 00 00 80 3f 00 00 80 3f
       1.0 1.0 1.0 1.0
000040 00 00 80 3f 00 00 80 3f 00 00 80 3f 00 00 80 3f
       1.0 1.0 1.0 1.0
000050 00 00 80 3f 00 00 80 3f 00 00 80 3f 00 00 80 3f
       1.0 1.0 1.0 1.0
000060 00 00 80 3f 00 00 80 3f 00 00 80 3f 00 00 80 3f
       1.0 1.0 1.0 1.0
000070 00 00 80 3f 00 00 80 3f 00 00 80 3f 00 00 80 3f
       1.0 1.0 1.0 1.0

bn3.bias f4 [32]
000000 00 00 00 00 00 00 00 00 00 00 00 00 00 00 00 00
       0.0 0.0 0.0 0.0
000010 00 00 00 00 00 00 00 00 00 00 00 00 00 00 00 00
       0.0 0.0 0.0 0.0
000020 00 00 00 00 00 00 00 00 00 00 00 00 00 00 00 00
       0.0 0.0 0.0 0.0
000030 00 00 00 00 00 00 00 00 00 00 00 00 00 00 00 00
       0.0 0.0 0.0 0.0
000040 00 00 00 00 00 00 00 00 00 00 00 00 00 00 00 00
       0.0 0.0 0.0 0.0
000050 00 00 00 00 00 00 00 00 00 00 00 00 00 00 00 00
       0.0 0.0 0.0 0.0
000060 00 00 00 00 00 00 00 00 00 00 00 00 00 00 00 00
       0.0 0.0 0.0 0.0
000070 00 00 00 00 00 00 00 00 00 00 00 00 00 00 00 00
       0.0 0.0 0.0 0.0

bn3.running_mean f4 [32]
000000 5c d2 19 3e ac 68 05 bd cd bd 46 3e e1 4f 14 3e
       0.15021652 -0.032570526 0.19408341 0.14483596
000010 3e 8d b5 bb 08 44 7c be 6f 41 de bd 64 cb 6c 3c
       -0.005540519 -0.24635327 -0.10852324 0.014452789
000020 51 a8 8d bd 39 9a b7 3d 18 4e 0d 3d 1f 97 bb be
       -0.069168694 0.089649625 0.034498304 -0.36638734
000030 d1 df fa bd 87 0e 1d 3c 19 24 89 be 27 51 05 3e
       -0.12249721 0.009585983 -0.26785353 0.13019238
000040 3e 3d 90 3d 75 39 1b 3e be a6 6b 3e da 77 07 be
       0.07042931 0.15158637 0.23012826 -0.13229313
000050 f9 1f e9 bc 49 18 2b 3e f6 52 a7 3d 1e 35 f5 3d
       -0.028457629 0.16708483 0.081701204 0.11973022
000060 fb a6 23 be 33 ed 01 3e ed ff 5a bd 00 9b 31 3d
       -0.15981667 0.1268814 -0.053466726 0.04336071
000070 f6 95 de 3e 18 21 6d 3e a1 83 3d 3e 87 92 8f 3c
       0.43473786 0.23157156 0.18507244 0.017525924

bn3.running_var f4 [32]
000000 fd aa 98 3d 75 a3 8d 3d 89 24 59 3d 74 87 f3 3d
       0.074544884 0.069159426 0.05301336 0.1189107
000010 52 e5 3c 3e 6a a9 0f 3e a7 40 97 3e 5b 8d 92 3d
       0.18446854 0.1402947 0.29541513 0.07155868
000020 67 ba 8e 3d ad ee 05 3e 09 a7 91 3d 92 c6 5f 3d
       0.06969147 0.13079329 0.071119376 0.05463273
000030 42 41 6d 3d d7 e9 94 3d 8c ad 6c 3d c4 a9 c3 3d
       0.057923563 0.07271164 0.057782695 0.095538646
000040 4a b9 a6 3d cc 7a 5e 3e b7 da 02 3e 5b 5c 2a 3e
       0.0814081 0.21726531 0.12778746 0.16636793
000050 6b 98 da 3d ef 98 a5 3d a7 b2 c7 3d 04 69 d7 3d
       0.10673603 0.080858104 0.09750872 0.10518077
000060 05 a5 29 3e 52 e2 ce 3d 09 4b 33 3e ac 43 91 3d
       0.16566856 0.10101761 0.17509092 0.070929855
000070 ec 75 8a 3e 3d d5 56 3e 16 8b c8 3d 2e 9d ce 3d
       0.27043092 0.20979781 0.097921535 0.100885734

fc.weight f4 [2, 32768]
000000 9b 5f 5a 3b b3 89 26 bb e8 ae 27 ba 96 f9 d7 ba
       0.0033321145 -0.0025411665 -0.00063966075 -0.0016477581
000010 e1 dc a7 bb b9 47 a1 bb e5 94 da 38 3e 0a 35 3b
       -0.0051227664 -0.00492188 0.00010422784 0.0027624513
000020 f0 d1 a3 bb 80 6b 8c bb 40 0f 99 bb b4 94 e1 ba
       -0.0049993917 -0.004285276 -0.0046710074 -0.0017210455
000030 c3 cb 86 3a 55 03 23 3b 27 c4 07 ba db 0b ab 3b
       0.0010284114 0.0024873812 -0.000517907 0.005219919
000040 de ba f1 ba 38 a1 f4 ba 93 1f ad ba 7f 30 6d 39
       -0.0018442532 -0.001866377 -0.0013208262 0.00022620148
000050 51 b7 22 bb 16 2e ab 3b f2 88 59 3b 96 d3 8c bb
       -0.0024828503 0.0052239997 0.0033193198 -0.004297684
000060 a8 7c a7 39 27 db 8d 3b 15 45 66 3b bc 01 48 3b
       0.00031945598 0.0043291035 0.003513639 0.0030518612
000070 f3 ab 54 ba b5 5e a0 bb 01 69 40 bb 81 21 9c 3b
       -0.00081127806 -0.0048941025 -0.0029359462 0.004764736
000080 fd 15 8f bb 7c 08 0d bb 49 dd 86 bb f5 68 1a bb
       -0.004366635 -0.002151995 -0.0041157347 -0.0023561094
000090 06 52 df ba 97 77 b4 3b ca 2b aa 3a 45 e7 72 bb
       -0.0017037995 0.0055074203 0.0012983021 -0.0037064117
0000a0 ef 5b f6 3a 90 e1 8e 3b ca 95 82 3b 2f d7 b9 ba
       0.0018795709 0.0043603852 0.0039851414 -0.001417851
0000b0 6d 70 40 bb 7f d4 86 bb c3 9c 1f 3b ea 19 b6 3a
       -0.0029363886 -0.004114687 0.0024354912 0.0013893221
0000c0 64 97 94 3b a6 1d 10 3a 65 c8 29 3a 53 1f 7e 3b
       0.0045346487 0.0005497582 0.00064766995 0.0038775995
0000d0 d3 e5 9d 3b 42 7b a0 bb a2 76 fe 3a 30 e5 64 3b
       0.004818657 -0.004897506 0.0019414017 0.0034926645
0000e0 3a af 95 bb 9c f5 b4 bb 7b f6 72 ba 69 ac ee ba
       -0.004568008 -0.005522443 -0.0009268296 -0.0018209341
0000f0 0c 11 d9 38 23 85 6b 3a 25 4a 99 bb 00 f6 f5 ba
       0.000103505416 0.00089843775 -0.004678028 -0.001876533
000100 44 f7 a3 bb 0c a2 98 bb cb 56 aa bb ff a3 89 bb
       -0.0050038416 -0.0046579894 -0.005198335 -0.004200458
000110 d4 27 01 bb 8c ad 03 39 24 f0 f6 b9 aa 3f 17 3a
       -0.0019707577 0.00012557785 -0.00047099695 0.00057696796
000120 f8 74 48 bb 32 0c 42 39 70 82 59 3b 60 b7 1d bb
       -0.0030587297 0.00018505825 0.003318932 -0.00240656
000130 e5 85 92 b8 d6 d4 7f 3b 3f 81 ca ba 3d 09 98 3b
       -6.986762e-05 0.0039036772 -0.0015449895 0.004639773
000140 b4 86 42 ba d2 37 93 39 df 38 08 bb 3b a3 8c 3b
       -0.0007420585 0.00028079614 -0.002078585 0.0042919195
000150 f9 25 a1 bb 84 c2 01 3b f8 28 22 bb a4 a1 e3 b9
       -0.004917857 0.0019799778 -0.0024743658 -0.00043417246
000160 04 e4 55 3b 65 5a 8e 3b 5a 16 3f bb 8e 61 a5 bb
       0.0032637129 0.004344272 -0.002915761 -0.00504703
000170 f0 ae 94 b9 fa 08 23 b8 d1 46 be 39 fa 5d a8 3b
       -0.00028359098 -3.887059e-05 0.00036292386 0.005138156
000180 f9 0d 53 3b 5f e4 83 ba da ce 3d 3b b8 e3 89 3b
       0.0032204373 -0.0010062567 0.0028962404 0.0042080544
000190 a2 58 ac bb 3a e9 54 bb fd bc 9b bb d8 fd b1 3b
       -0.0052595893 -0.0032487647 -0.004752754 0.005431872
0001a0 38 48 75 3b 30 86 8b bb 99 86 9f 3a f7 0c 5e bb
       0.003742708 -0.0042579398 0.001217085 -0.003388224
0001b0 df 9a a9 3b 30 2b 05 3b c5 0f e5 ba 46 61 e7 b9
       0.005175933 0.0020319931 -0.0017476013 -0.00044132228
0001c0 4d e9 df 3a 7c 6b 84 bb 9d f0 81 3b 12 31 c3 3a
       0.0017083079 -0.0040411334 0.003965451 0.0014891943
0001d0 d0 07 3f ba a5 f9 1f 3b d2 66 41 3b 57 9d ff 3a
       -0.0007287236 0.0024410274 0.0029510749 0.0019501847
0001e0 95 db af 3b 43 5e 95 3b 66 a7 86 bb 0b a7 4a bb
       0.0053667524 0.004558356 -0.004109311 -0.003092232
0001f0 59 8b fc ba 04 29 7c 3a 19 5e e6 ba e5 9f 0b 3b
       -0.0019267603 0.0009619149 -0.0017575651 0.0021305021
000200 f8 c5 0f b9 7e 89 69 bb ba 6b 71 bb 4a b3 8a bb
       -0.00013711292 -0.003563493 -0.0036837892 -0.0042327987
000210 32 98 5f bb 14 e2 c1 3a 88 1d c8 3a 8e 0c 30 3b
       -0.0034117815 0.0014792108 0.001526759 0.0026862952
000220 cc 00 41 3b 25 ce 96 bb 69 13 07 bb 32 53 33 bb
       0.0029449938 -0.004602211 -0.0020610935 -0.002736282
000230 26 97 88 3b 88 5c 13 3b df 56 12 ba 16 6c 03 3b
       0.004168409 0.0022485573 -0.0005582403 0.0020053438
000240 95 7e 91 bb 9f 39 bb ba 64 eb 99 bb 70 95 80 bb
       -0.0044401386 -0.001428414 -0.00469725 -0.0039240643
000250 a0 f5 10 bb b2 db 1f bb 4a 5e 2c b7 53 57 e0 3a
       -0.002211906 -0.0024392423 -1.0273952e-05 0.0017115868
000260 e5 d9 34 3b 3e d8 8f bb 52 9b 70 ba 7a 56 33 bb
       0.0027595696 -0.0043897917 -0.0009178418 -0.0027364776
000270 b6 df 0b b9 ba 7c 8b bb d0 9d dc 3a 5a 25 03 3b
       -0.00013339412 -0.004256812 0.00168317 0.0020011277
000280 96 a4 0c 3b 8f e8 72 3a a9 96 93 b9 9c aa 5b ba
       0.0021460406 0.00092662213 -0.00028150275 -0.000837961
000290 19 fa 02 3b ac 9a 00 3a 39 83 b0 bb ff 6a 3b bb
       0.0019985496 0.00049058604 -0.0053867367 -0.002859771
0002a0 67 d6 77 bb 02 68 3c bb a9 f0 50 3b bb dc 5a bb
       -0.0037817003 -0.0028748517 0.0031881726 -0.0033395726
0002b0 a6 43 b0 3b 94 5b aa 3b e3 50 80 3b 79 e0 8f bb
       0.005379158 0.0051989052 0.0039158924 -0.004390773
0002c0 f9 de 99 3b 2f c6 5c 3b f9 71 7d bb 48 e4 27 bb
       0.00469577 0.0033687463 -0.003867267 -0.0025618244
0002d0 8d 91 88 bb 61 2b 17 ba 5b cc 80 3b ec 97 23 3b
       -0.0041677416 -0.0005766657 0.003930611 0.0024962379
0002e0 a4 16 a5 3b 7e f6 0d bb 27 29 07 bb 52 dc 99 bb
       0.0050380994 -0.0021661813 -0.0020623894 -0.0046954537
0002f0 47 8b df ba d6 26 39 3b d6 53 13 3a e0 be f8 ba
       -0.0017055058 0.0028251908 0.00056200975 -0.0018977784
000300 0b e4 83 3b d6 52 92 3b 70 72 af bb 01 f2 ab bb
       0.0040249876 0.004465441 -0.005354218 -0.005247355
000310 c1 ba 15 3a 7d fc 55 ba a3 71 50 3b c4 7a a0 3b
       0.00057117274 -0.0008162929 0.0031806014 0.0048974473
000320 d4 31 a4 3b e1 65 22 bb a6 29 2d 3b 67 81 91 bb
       0.005010823 -0.0024779963 0.002642253 -0.004440475
000330 03 88 75 3b 80 c9 fd b9 78 c1 ab bb 76 63 a4 bb
       0.0037465103 -0.0004840605 -0.005241569 -0.0050167395
000340 f3 9e f3 3a d8 71 1e 3b 16 ee 02 bb 99 61 a5 3b
       0.0018586799 0.0024176743 -0.0019978336 0.005047035
000350 56 b0 5f 38 5b 46 16 3b 8e dd 8d 3a 91 ad 21 3b
       5.333157e-05 0.0022930119 0.0010823475 0.0024670104
000360 ad 07 64 bb 33 3f 0d 3b 68 34 b2 38 b4 24 8b ba
       -0.0034794614 0.0021552562 8.497463e-05 -0.0010615797
000370 6b fa 1d bb d1 20 f8 37 0f 75 0b 3b 71 f5 6a 3b
       -0.002410556 2.9579185e-05 0.002127949 0.003585186
000380 98 db aa ba 94 bc 11 3b 4e 5a 85 bb e8 2c 4f 3b
       -0.0013035415 0.0022237645 -0.004069603 0.003161246
000390 a4 7c 69 3b 9f 2d 95 3b 30 b7 9b 3a e4 50 8d bb
       0.003562727 0.0045525576 0.0011880156 -0.0043126214
0003a0 44 82 6b 3a 26 e5 80 bb 99 b4 a2 3b 4c ab a0 3b
       0.00089839497 -0.0039335666 0.0049653766 0.0049032327
0003b0 7a 60 50 3b f4 30 92 3b e8 f4 2e bb bb 2e 8e 3b
       0.0031795786 0.004461402 -0.0026696268 0.004339067
0003c0 df 75 80 3b 53 ef 15 3b c2 85 4d 3b 74 48 6e bb
       0.0039203013 0.0022878244 0.0031360243 -0.0036359103
0003d0 c0 cd 2c ba a2 5d 77 bb 2b 55 8e 3b cd 49 a5 b9
       -0.00065919384 -0.0037745018 0.004343649 -0.00031526238
0003e0 fb 6e ac 3b c9 72 a6 b9 cc 5c 37 3b f7 10 5e 3b
       0.0052622533 -0.0003174751 0.0027978895 0.0033884624
0003f0 bc d9 22 bb 85 f7 ff ba 85 1f b3 ba 5d 76 a2 3b
       -0.0024849018 -0.0019528723 -0.001366601 0.0049579577

fc.bias f4 [2]
000000 69 dc a6 ba 45 ca a1 ba
       -0.0012730482 -0.0012343606
